…
[2022-03-11 10:15:27,903: INFO: stage_02_base_model_creation]: >>>>> stage BASE MODEL CREATION started <<<<<
[2022-03-11 10:15:27,921: INFO: common]: yaml file: configs/config.yaml loaded successfully
[2022-03-11 10:15:27,921: INFO: stage_02_base_model_creation]: layers defined
[2022-03-11 10:15:29,846: INFO: stage_02_base_model_creation]: base model summary:
Model: "sequential"
_________________________________________________________________
 Layer (type)                Output Shape              Param #   
=================================================================
 conv2d (Conv2D)             (None, 178, 178, 32)      896       
                                                                 
 max_pooling2d (MaxPooling2D  (None, 89, 89, 32)       0         
 )                                                               
                                                                 
 conv2d_1 (Conv2D)           (None, 87, 87, 32)        9248      
                                                                 
 max_pooling2d_1 (MaxPooling  (None, 43, 43, 32)       0         
 2D)                                                             
                                                                 
 flatten (Flatten)           (None, 59168)             0         
                                                                 
 dense (Dense)               (None, 8)                 473352    
                                                                 
 dense_1 (Dense)             (None, 2)                 18        
                                                                 
=================================================================
Total params: 483,514
Trainable params: 483,514
Non-trainable params: 0
_________________________________________________________________

[2022-03-11 10:15:29,846: INFO: stage_02_base_model_creation]: base model summary:
Model: "sequential"
_________________________________________________________________
 Layer (type)                Output Shape              Param #   
=================================================================
 conv2d (Conv2D)             (None, 178, 178, 32)      896       
                                                                 
 max_pooling2d (MaxPooling2D  (None, 89, 89, 32)       0         
 )                                                               
                                                                 
 conv2d_1 (Conv2D)           (None, 87, 87, 32)        9248      
                                                                 
 max_pooling2d_1 (MaxPooling  (None, 43, 43, 32)       0         
 2D)                                                             
                                                                 
 flatten (Flatten)           (None, 59168)             0         
                                                                 
 dense (Dense)               (None, 8)                 473352    
                                                                 
 dense_1 (Dense)             (None, 2)                 18        
                                                                 
=================================================================
Total params: 483,514
Trainable params: 483,514
Non-trainable params: 0
_________________________________________________________________

[2022-03-11 10:15:29,892: ERROR: stage_02_base_model_creation]: 'model_dir'
Traceback (most recent call last):
  File "src/stage_02_base_model_creation.py", line 67, in <module>
…
